…
    tf.keras.Input(shape=(IMAGE_SIZE[0], IMAGE_SIZE[1], 3)),
    tf.keras.layers.Flatten(),
    tf.keras.layers.Dense(512, activation='relu'),
    tf.keras.layers.Dropout(0.7),
    tf.keras.layers.Dense(128, activation='relu'),
    tf.keras.layers.Dropout(0.5),
    tf.keras.layers.Dense(64, activation='relu'),
    tf.keras.layers.Dropout(0.3),
    tf.keras.layers.Dense(1, activation='sigmoid')
])



Model: "sequential_4"
_________________________________________________________________
 Layer (type)                Output Shape              Param #   
=================================================================
 flatten_3 (Flatten)         (None, 97200)             0         
                                                                 
 dense_16 (Dense)            (None, 512)               49766912  
                                                                 
 dropout_12 (Dropout)        (None, 512)               0         
                                                                 
 dense_17 (Dense)            (None, 128)               65664     
                                                                 
 dropout_13 (Dropout)        (None, 128)               0         
                                                                 
 dense_18 (Dense)            (None, 64)                8256      
                                                                 
 dropout_14 (Dropout)        (None, 64)                0         
                                                                 
 dense_19 (Dense)            (None, 1)                 65        
                                                                 
=================================================================
Total params: 49,840,897
Trainable params: 49,840,897
Non-trainable params: 0
_________________________________________________________________